app/src/main/assets/mnist_test.tflite (tflite, 978444 bytes, 10 tensors)

layer_1_conv/Conv2D_bias f4 [6]
000000 99 9c 04 3c 7f d3 32 3d 9b a6 8c 3d c7 85 f7 3c
       0.008093976 0.04365873 0.06867715 0.030215157
000010 01 4b 44 bc 19 fe 21 3c
       -0.011980773 0.009887242

layer_1_conv/weight f4 [1, 6, 6, 6]
000000 97 f3 fb bd 02 57 d3 bd d3 41 69 bd 23 c2 af bd
       -0.123023205 -0.1031933 -0.05694754 -0.085819505
000010 7b 27 04 3e ee 49 dc 3c 7b da ae 3d 40 1f 8c 3d
       0.12905686 0.026890721 0.085377656 0.06841898
000020 fa dc 0d be b0 49 e9 bd 25 1e 7f bd 45 3b c2 3d
       -0.13853827 -0.11391008 -0.062284607 0.09483961
000030 03 49 44 3d 6c 66 f9 3d 4f a9 30 bd 93 f8 31 3d
       0.047921192 0.121777385 -0.043130215 0.04344995
000040 72 aa cc bd ed 16 fa 3d fb b5 dd 3d de 81 15 3b
       -0.09993447 0.12211404 0.10825726 0.0022813003
000050 3a ec 3c be db 9d fe bd 6f 66 4f bc 78 26 af 3c
       -0.18449488 -0.12432452 -0.012658699 0.021380648
000060 d7 9d 1d 3e a3 cc ef bc f0 7b ef 3d af b6 52 bd
       0.15392242 -0.029272383 0.11693561 -0.051443752
000070 00 9e 61 3e 0d 23 6e be e7 ff c2 bd 85 74 82 bd
       0.22032928 -0.23255558 -0.09521466 -0.063698806
000080 25 89 89 bc bd 6a 97 bd 17 2e d8 3d 78 0a b2 bd
       -0.016789028 -0.073934056 0.10555666 -0.08693403
000090 86 23 bf 3d 64 24 63 bd ad 79 15 bd d5 e6 0c bd
       0.093329474 -0.055454627 -0.036492992 -0.034399826
0000a0 d4 c8 75 3e 43 c6 5a 3b 9e c0 1e 3d 69 da 11 3e
       0.24002391 0.0033382333 0.038757913 0.14243473
0000b0 d8 39 94 3d a9 c5 0a 3d 9f ef 88 bd c7 e2 96 bd
       0.07237595 0.03387991 -0.06686329 -0.07367473
0000c0 7e a1 44 3e 85 43 36 3e 28 27 0d 3e a1 c7 7e be
       0.1920223 0.17799194 0.13784468 -0.2488084
0000d0 13 5c eb bd 8f d8 8b be a2 95 10 3e db dd 59 3e
       -0.11492171 -0.2731366 0.1411958 0.21276037
0000e0 b8 e8 e2 3c a1 92 c9 bc 60 a8 ea bc 49 c9 cb be
       0.02769886 -0.02460605 -0.02864474 -0.39802006
0000f0 5a 39 c5 bd bf 11 92 bc 88 8e 68 3e de e5 bb 3b
       -0.096300796 -0.017830728 0.22710621 0.0057341894
000100 5b 10 e4 3d a3 6b 75 be 92 6d f5 bd 06 ab 4e 3d
       0.11135932 -0.23966841 -0.119837895 0.05045607
000110 92 f3 1f 3e 72 8e f0 3d 09 df 22 3c f6 f7 33 3e
       0.15620258 0.11745919 0.009940871 0.17575058
000120 6c dd d4 3d 2b 9f 88 3e 99 b3 be 3d c0 e9 16 3e
       0.10393795 0.26683936 0.09311599 0.14737606
000130 8e 18 cf 3d d2 ce c4 bd aa da 32 3e 79 82 5d 3e
       0.10112105 -0.0960976 0.17466226 0.21631803
000140 7c 21 1e bc 8d 49 90 3e 3e 15 d8 bd 2a d2 8a be
       -0.009651538 0.28181115 -0.105509266 -0.27113467
000150 f8 38 6e 3e 29 1c cc 3e 35 2c 99 3e ca ca e9 bc
       0.2326392 0.39865234 0.2991654 -0.02853908
000160 22 53 57 be 31 b6 1e be e5 48 4b 3d ea 57 0d 3e
       -0.21027806 -0.15499188 0.049630065 0.13803068
000170 45 2b a2 3e 3d e2 24 bd 5e 79 77 be 65 13 8c bd
       0.31673637 -0.04025482 -0.24167392 -0.06839637
000180 c7 e1 9f bd 89 f2 94 3d e9 1a 6a 3e 07 c8 0b 3e
       -0.078067355 0.072728224 0.22861828 0.13650523
000190 0c 49 6c 3e 61 e7 46 3e e7 8e 0c be d8 84 eb 3d
       0.2307474 0.19424202 -0.13726388 0.11499947
0001a0 66 9d 50 3e fa 5f 4b 3e 1d c1 01 3e af 8e 34 3e
       0.20372543 0.19860831 0.12671323 0.17632554
0001b0 5d 76 c9 3d c3 da 17 3e 45 d0 2e 3d 09 32 c5 3e
       0.09837029 0.14829545 0.04267909 0.38514736
0001c0 e1 51 59 bd 1a 72 84 3e d2 7b b9 3e 8c c0 8b 3e
       -0.0530566 0.25868303 0.3622728 0.2729534
0001d0 28 0a 45 3e f1 1f 5e 3e 66 55 13 be 40 f1 dc 3d
       0.19242156 0.21691872 -0.14388046 0.10788202
0001e0 ff 0b 99 3e ce 1a f7 3d 2d 53 5e bd 14 66 86 bc
       0.29891965 0.120656595 -0.05427854 -0.016406097
0001f0 1f e3 55 be a5 60 54 3e b5 68 0a bd 18 7e 4c 3e
       -0.20887421 0.20739992 -0.033791263 0.19969976
000200 ae 6c 60 3e 3d 95 52 3d a0 2f 57 be bd 1b 47 3e
       0.21916458 0.051411856 -0.21014261 0.19444175
000210 66 e2 d8 be b4 53 ab 3d 06 2c 63 3e ab d2 1b be
       -0.42360228 0.083655745 0.22184762 -0.15217082
000220 f5 51 68 3e d7 2e 51 3e b5 34 54 be 93 83 cb 3d
       0.22687514 0.20428024 -0.20723231 0.09937205
000230 f4 97 18 be 56 6e 36 3e 56 7a 9c 3e 79 be d9 3d
       -0.14901716 0.17815527 0.30562085 0.10632033
000240 b2 97 06 3e cf 2d 24 bd f8 ff 83 be 03 77 c7 3e
       0.13143805 -0.04008275 -0.25781226 0.38957986
000250 6f f9 00 be f6 e8 e4 3d bc 18 26 3e bc 55 b4 bd
       -0.12595151 0.11177246 0.16220373 -0.08805415
000260 53 8c 97 be f1 78 d3 3e 05 9b 11 be c4 ad 92 3e
       -0.29599246 0.41303208 -0.14219292 0.28648198
000270 a7 d6 c6 3d 62 23 51 bd ae 71 76 be 13 67 21 bc
       0.097089104 -0.051059134 -0.24066803 -0.009851235
000280 4e fc 22 be fc 37 0e 3e a6 2c 60 be 95 e6 32 3c
       -0.15916559 0.13888544 -0.21892032 0.010919233
000290 69 5c 46 ba e0 e2 a7 bd e9 aa c7 3d 1e a6 15 3d
       -0.0007566871 -0.0819757 0.097493954 0.036535375
0002a0 b2 20 40 be 53 ef 34 bd 50 61 09 be 12 74 1d 3d
       -0.18762472 -0.04417355 -0.13416028 0.03844077
0002b0 9d c4 09 3e 65 5b 9a 3e 57 f0 12 be 96 d4 b3 3d
       0.13453908 0.30147853 -0.14349495 0.08780782
0002c0 1f cc 7f be 61 5e 80 3d 37 28 a3 3e 9d fa 89 3e
       -0.2498021 0.06268001 0.3186662 0.26949015
0002d0 dc 3b 61 3d 23 4c 81 be 59 a8 3d bd 19 77 6b 3e
       0.054988727 -0.252534 -0.046303127 0.22994651
0002e0 1b f1 fc bd 9d bd 17 be 05 e9 0a 3e 6a 45 e1 be
       -0.12350675 -0.14818425 0.13565452 -0.4399827
0002f0 a9 88 a2 3d 1c e3 58 3e d4 8e 2a be 6f 9a 69 be
       0.07936222 0.21180385 -0.16656047 -0.22812818
000300 a1 9a 2f be 1e e2 71 be 46 b6 73 bd c8 32 78 bd
       -0.1714883 -0.23621413 -0.0595 -0.060595304
000310 50 d9 9b bd 02 d6 05 bd d9 4d 83 be 35 51 6f bd
       -0.076098084 -0.032674797 -0.2564533 -0.058427054
000320 f1 61 0b bd 14 54 b3 3c 6a 80 4d 3e 10 73 02 be
       -0.03402895 0.021890678 0.20068517 -0.12739205
000330 c1 f2 74 be 53 b7 dc bd cd 73 9a 3c a8 7e 66 bd
       -0.23920728 -0.10777154 0.018854046 -0.056273133
000340 a0 7d 03 3e 9b 9c c0 bc b6 14 5c 3d 3c 74 a0 bb
       0.12840891 -0.023512175 0.05373069 -0.0048966687
000350 cb 03 db 3d bf 15 9b 3d 4c 72 a0 3e e1 68 24 3e
       0.10694083 0.07572507 0.31337202 0.16055633

layer_2_conv/Conv2D_bias f4 [12]
000000 11 43 42 3d eb 3b d8 bc 71 ee 6a 3d 71 0b 95 bc
       0.04742724 -0.026395759 0.0573563 -0.018193932
000010 f3 7c 61 3c 6e 02 16 3b 65 64 ef 3c d2 2f 02 be
       0.0137627 0.0022889632 0.029222677 -0.12713555
000020 e4 fb 51 bc 6d f3 05 3d 8c e5 c4 3c 51 37 22 3d
       -0.012816403 0.032702852 0.024035238 0.039603535

layer_2_conv/weight f4 [12, 5, 5, 6]
000000 a0 fd 0c 3e 10 c5 9f 3d c8 37 c9 3c c9 d0 d0 3c
       0.13768625 0.078012586 0.024562731 0.025490182
000010 63 54 7d be 99 4b c4 bc 59 64 e7 bb eb 08 1f bc
       -0.24739222 -0.023961829 -0.007061523 -0.009706716
000020 61 70 91 be e2 41 b8 3d 91 51 65 bd 79 48 c4 bd
       -0.2840605 0.08996941 -0.05598599 -0.095841356
000030 f4 87 87 3d ec c2 92 be e2 9a f0 bd fc b9 1f 3e
       0.06617728 -0.2866434 -0.117482916 0.15598291
000040 25 93 9b 3e 63 67 95 3d a3 18 68 3d 9a 86 80 be
       0.303857 0.0729511 0.05666412 -0.25102693
000050 5a d9 db 3c 95 0f ca bd e7 fe 7f 3d 32 50 c9 3d
       0.02683704 -0.09866253 0.062498953 0.09829749
000060 0c fa 66 be 91 48 25 be 2d ac 33 3e 24 46 b5 be
       -0.22556323 -0.16140963 0.17546149 -0.35405076
000070 0b 0b 7c be b7 b0 05 be c2 45 72 3e 44 e8 50 3c
       -0.24613588 -0.13055693 0.23659423 0.012750689
000080 97 bf da bc 8e 34 86 bc 43 67 af bd 71 95 9e be
       -0.026702685 -0.016382482 -0.085646175 -0.3097339
000090 8f 89 76 3e e9 58 63 3c ea 4a 9d be 60 ed 2f 3e
       0.24075912 0.013876178 -0.30721217 0.17180395
0000a0 89 b8 c2 3c 65 6e 06 3e ee 76 21 3d 0c 9e c0 bd
       0.023769634 0.1312805 0.03942006 -0.09405145
0000b0 61 58 12 be f9 56 13 3e ef 9a ac 3e dd c1 b0 3e
       -0.14291526 0.14388646 0.33711955 0.34522906
0000c0 94 1e 87 bd 0c 6d 4f be f0 6d 9a 3e 8d 07 09 3d
       -0.06597629 -0.20256442 0.30162 0.033454467
0000d0 5a 49 21 3e a4 f2 24 3e c9 b5 8c be 42 d6 2e be
       0.15750638 0.16108185 -0.2748244 -0.1707392
0000e0 31 dd 06 bd e2 24 b3 be f7 40 20 be 7f 96 1e be
       -0.03292579 -0.34989077 -0.15649782 -0.15487097
0000f0 3c 1f df 3d f2 dc 74 bd 3b 92 29 be 74 05 91 bd
       0.10894629 -0.059781022 -0.16559689 -0.07081118
000100 57 86 12 3d 0f eb b9 be c4 c2 4e 3e a5 03 81 bd
       0.035772648 -0.36312148 0.20191485 -0.06299523
000110 e3 8b af be ec e4 dd 3d 41 32 39 3e c0 1e 86 3a
       -0.34286413 0.10834679 0.18085577 0.0010232553
000120 ad a5 58 bd 1e 2a 8c 3c 3e 95 6d be 98 c5 89 3e
       -0.052892376 0.017109927 -0.23201463 0.26908565
000130 14 78 23 3e 5e e9 a0 3e 3a 94 a9 bd 53 26 46 bd
       0.15963775 0.31428045 -0.08280225 -0.048376393
000140 37 f8 36 3d 00 87 59 3c 98 c9 9c 3e 3a 5f 86 3d
       0.04467031 0.013276815 0.30622554 0.06561132
000150 79 c0 d7 bd 53 2d 2c be 07 11 e7 bc ef 43 8d be
       -0.10534758 -0.16814165 -0.028206361 -0.27590892
000160 b4 52 16 bc 1f 35 1f be d3 24 53 3c 1a fa bf 3d
       -0.009174991 -0.15547608 0.012887198 0.09373875
000170 f3 66 16 be a8 b5 12 be ea 88 00 3d b5 2b cb be
       -0.1468771 -0.14327109 0.03138057 -0.39681783
000180 2f 9a bc 3d be b8 bf bd 8a ca 9e be 63 d2 41 3e
       0.09209096 -0.09361409 -0.310139 0.18927912
000190 7a c5 6c 3d f2 d0 11 be 43 44 4c 3e 3d 12 fa bc
       0.057805516 -0.14239863 0.19947915 -0.030526275
0001a0 29 e3 a2 3d 86 8d 6d 3e 67 e8 05 3e 47 a8 7e 3e
       0.079534836 0.23198518 0.13076936 0.2486888
0001b0 fd 98 f6 3c ee a3 9c bd d4 cc 92 3c f5 f0 27 3d
       0.030102247 -0.076484546 0.017919935 0.04100128
0001c0 e9 db 64 3e 3c 11 e2 3d 17 e7 b7 be 30 f0 b4 3d
       0.22349514 0.110384434 -0.35918495 0.08834875
0001d0 e1 c7 00 be b8 ff b1 be 9c e0 25 be ec 76 05 3d
       -0.12576248 -0.3476541 -0.16198963 0.032584116
0001e0 c5 51 74 3e 42 ea a8 bd ca 98 6f be 0f 8f 44 bd
       0.23859318 -0.08247806 -0.23398128 -0.047987994
0001f0 81 14 a0 be 79 2b e5 be a2 8f 1c 3e 4f 12 fa 3d
       -0.31265643 -0.4475973 0.15289167 0.12210523
000200 23 47 7f be 7a ca 64 3d ca fd 18 3d ae 69 99 be
       -0.2492948 0.05585716 0.037351407 -0.2996344
000210 0f 46 ba 3d c3 e6 3e be 1e 36 39 bd f9 51 ff 3d
       0.09095394 -0.18642716 -0.045217626 0.12466807
000220 de 79 03 3e a2 93 01 3e 7c 07 8d 3d cb f8 d7 bd
       0.12839457 0.12653974 0.06886193 -0.105455
000230 9f c0 ee 3d 36 0c 90 3e 27 57 0d 3e a8 13 6d 3c
       0.11657833 0.28134316 0.13802777 0.014470018
000240 06 4c b0 be 1c e2 33 3e 3d 32 f5 bd d6 0b 53 be
       -0.34433 0.17566723 -0.11972473 -0.20609984
000250 9f 6e 28 3d 9b ef 65 3d b0 6c cf bd d8 43 72 bd
       0.04112112 0.05613671 -0.10128152 -0.059146732
000260 9c cb 7b 3d 86 a7 3b be 15 53 e8 3d 3a 87 1d be
       0.061473474 -0.18325624 0.11343972 -0.15383616
000270 15 aa 9c 3d e2 78 da bc 1b 54 d4 bd e0 d9 80 3d
       0.07649628 -0.02666897 -0.10367604 0.06291556
000280 e5 fa 4a 3e 17 5b ff 3d 1d db a2 3c 71 4e 67 bd
       0.19822271 0.12468546 0.019879872 -0.056471292
000290 60 50 86 3c a2 ec 32 3e 40 e1 85 3e d8 95 14 3e
       0.016395748 0.17473081 0.26148415 0.14510286
0002a0 57 e3 23 3e f5 1c 2f be 7e 9b a7 3d 6e 25 8c bd
       0.16004692 -0.1710089 0.08183955 -0.06843077
0002b0 a6 12 e8 bc 03 93 01 be 3c 83 87 3e e3 14 23 be
       -0.028329205 -0.12653737 0.2646731 -0.15925936
0002c0 13 40 a4 3d 17 f4 80 bd d8 d9 63 be 92 c0 4c be
       0.08020034 -0.062965564 -0.2225107 -0.19995335
0002d0 3a fb 7e bd 0b 74 db bd 4e dc 8b 3d 92 ba 4a bd
       -0.062251307 -0.10715493 0.06829129 -0.049494334
0002e0 88 01 30 3c a2 86 57 be 12 11 9e 3d 60 6d 89 3c
       0.010742553 -0.21047452 0.077181 0.016775787
0002f0 8b 0f 46 bd f2 c2 91 3d 8f 30 01 3e 2b e0 82 3e
       -0.048354667 0.07117261 0.1261618 0.25561652
000300 de 6f 27 3e f7 fe 26 bd 20 a4 58 3c 46 83 16 3c
       0.16351268 -0.040770497 0.013222724 0.009186571
000310 84 53 b8 3d 55 ad 14 3e 70 73 02 3d 4f c5 31 be
       0.09000304 0.14519246 0.03184837 -0.17360424
000320 99 5a 72 3e e8 e2 42 bc 54 b1 8b 3d 95 17 3b 3d
       0.23667373 -0.011894919 0.06820932 0.045676786
000330 18 ba fc 3c 4a bd b9 bd 4f de 35 bd 31 99 3a be
       0.030850455 -0.09069307 -0.044401463 -0.182225
000340 3d b2 11 be 5a 3e 96 be 3c 81 a5 3d db 47 8c be
       -0.14228149 -0.29344445 0.0808129 -0.2739857
000350 8b 0f 80 be 6d 54 29 be fe 41 55 3d 92 c3 e5 bd
       -0.25011858 -0.16536112 0.05206489 -0.11218943
000360 d9 5b 5f 3e f1 21 b2 3c 86 5e b7 bd 55 f2 58 3e
       0.21812381 0.0217447 -0.08953576 0.21186192
000370 89 aa bf 3e b3 fd 99 3e cf c6 01 3e b0 7b b4 3d
       0.37434795 0.3007637 0.12673496 0.08812654
000380 95 2e 76 3d 45 9a ae bd 26 fb f4 3d e8 98 e7 3d
       0.060103018 -0.08525518 0.11961965 0.113084614
000390 9b 9b a0 bd 43 b5 a3 3a b4 13 af 3d a4 3d 1e be
       -0.078421794 0.0012489933 0.0854868 -0.15453202
0003a0 8a 36 ec 3b 14 9b 0a bd d3 e7 8d bc bf 92 46 3d
       0.00720865 -0.0338393 -0.017322456 0.04847979
0003b0 b0 c0 ed bd b3 46 82 bc d0 b6 85 be 48 ba bb be
       -0.11609018 -0.015902853 -0.26116037 -0.3666556
0003c0 78 97 8f 3e dc 42 a7 bd 51 3b 92 be 82 75 db 3d
       0.2804525 -0.08167049 -0.2856088 0.10715772
0003d0 32 6e 57 bc 76 f3 0a bd c1 a8 02 3e 39 14 d6 3c
       -0.013148831 -0.03392359 0.12759687 0.02613269
0003e0 8e 2a 29 bd ed f8 28 3d c0 3b 75 3d 38 b1 44 3e
       -0.04130035 0.04125302 0.059871435 0.19208229
0003f0 5d ce 91 3d 04 61 22 3e f0 3a a5 3c d4 f5 0b be
       0.07119439 0.15857321 0.020169705 -0.13667995

layer_3_conv/Conv2D_bias f4 [24]
000000 56 a1 40 3c a0 30 33 3c e8 3a cd bc 73 d4 56 bd
       0.0117572155 0.010936886 -0.025052503 -0.0524487
000010 a6 7c 21 bd 90 22 86 3c 6f 21 ad bb 19 20 a4 bc
       -0.039425515 0.016373903 -0.0052835266 -0.020034837
000020 29 09 d3 3c a9 4c d9 bc bc ce bf 3c 09 95 b1 3c
       0.025761204 -0.026525812 0.023414008 0.02167751
000030 ee ca 31 bc 7a 1b a3 bd a4 a0 d1 bd ae 95 22 bd
       -0.010851605 -0.07964225 -0.10235718 -0.039693527
000040 f5 50 28 bd fb 4f 4b bc 58 ef 46 bd c9 fb 4d bd
       -0.04109283 -0.012409206 -0.0485681 -0.05028895
000050 89 95 3c bd ba 47 6d bb 9d 0d 59 bd fe 9a 09 bd
       -0.046041045 -0.0036206082 -0.0529915 -0.033595078

layer_3_conv/weight f4 [24, 4, 4, 12]
000000 c7 42 f5 3d 65 d8 e6 3d 53 98 f0 bd c4 cd 89 3d
       0.119756274 0.11271743 -0.117478035 0.067287
000010 da c3 48 be 81 ba ba bd 6a 17 67 bb 16 07 62 3d
       -0.19605961 -0.09117604 -0.0035261759 0.05518254
000020 41 94 f6 bd 44 3f e1 bb 84 fd 0e be 8e 1e 2c be
       -0.12039996 -0.006873997 -0.13963896 -0.1680853
000030 44 21 a9 bc 39 46 be 3d cd 70 33 be 7a 6b 78 3c
       -0.020645745 0.09290738 -0.17523499 0.015162343
000040 33 0a a2 bd 0e dd c1 3d b6 5b 2d 3e 52 d9 69 be
       -0.079121016 0.09465991 0.16929516 -0.22836807
000050 a6 76 06 3e 37 cd 20 3e eb 82 34 3e 9d b2 2a be
       0.13131198 0.15703283 0.17628066 -0.16669698
000060 f2 fa ac bd 88 be 19 3d 79 65 88 be fb d0 3d be
       -0.084463015 0.03753522 -0.26639917 -0.18536751
000070 1d 17 07 bd d8 44 6e 3e 25 ff 2e be 3a ef 6c bd
       -0.032981027 0.2326845 -0.17089517 -0.05784533
000080 35 bd 8f bd 35 f6 8a 3d c5 2b 91 3d be 21 8d bd
       -0.0701851 0.067852415 0.070884265 -0.068912014
000090 48 fe a2 bc dc 63 7c 3a d6 77 f6 3d cb 5a c0 3d
       -0.019896641 0.00096279173 0.12034576 0.093923174
0000a0 97 6f 0b 3e 0b 81 51 3e b1 12 81 3d 01 6a 19 3e
       0.13616787 0.20459382 0.06302393 0.14981844
0000b0 49 d2 18 bd 70 07 3b 3c ec 90 8e bd 4e d2 38 bd
       -0.03730992 0.011415347 -0.069612354 -0.045122437
0000c0 6e 50 48 bc 5e 98 00 bd b9 22 6b 3d b3 01 f8 3d
       -0.012226207 -0.03139531 0.05740616 0.12109699
0000d0 13 df 20 3c 33 3d 06 be 05 7f 3c bd 4f c7 7b 3d
       0.00981881 -0.13109283 -0.046019573 0.061469372
0000e0 4e cc 10 be a8 d0 e0 3d aa d7 ea bb 4a 10 a8 bd
       -0.14140436 0.10977298 -0.0071668224 -0.08206232
0000f0 28 99 eb bd 3d 09 91 bb 03 bd 31 be d1 ce d8 3d
       -0.115038216 -0.00442615 -0.17357258 0.10586322
000100 51 f3 43 bd 68 cd 50 bd 65 b3 22 3c 26 eb 88 3d
       -0.047839466 -0.05097714 0.009930466 0.06685476
000110 cd 5e 8b 3e 1a f7 87 3d 31 3e 36 3e 1a 87 36 3d
       0.27220765 0.06638928 0.17797162 0.044562437
000120 66 93 d5 3d ee 07 46 3d e1 43 41 be 59 48 9b be
       0.10428505 0.048347406 -0.1887355 -0.30328634
000130 34 a9 e5 3d 23 87 20 bd db b1 0f 3c 93 f9 93 bd
       0.112139136 -0.039191376 0.008770431 -0.07225337
000140 fb fe c7 bd 68 25 d7 3d aa 51 63 3d 67 3f e4 3b
       -0.097654305 0.105051816 0.055497803 0.006965566
000150 16 6a df bc df e1 67 3d 95 5c 90 3d cd e0 99 3c
       -0.027272265 0.05661189 0.070489086 0.018783951
000160 f6 c2 a2 3c 0b 3a 50 3e f0 3a 01 3e bc 48 3f bd
       0.019868355 0.20334642 0.12620139 -0.046700224
000170 72 41 9b be 77 9a 48 bd 5f f3 40 be 1f d8 30 bd
       -0.30323368 -0.048975434 -0.18842839 -0.04317486
000180 bf 72 30 be 12 5e 4f 3e 54 7d ee bc 42 39 b8 bc
       -0.17231272 0.20250729 -0.029112495 -0.02248824
000190 4c 24 46 bc 20 1f 17 be 5e 7a 50 3c 7c fc 01 3d
       -0.012093615 -0.14757967 0.012724487 0.03173493
0001a0 a4 7d 27 bc cb 2c d9 bc fa 5a 08 bc 44 6f 81 3c
       -0.010222826 -0.026510617 -0.008322472 0.015800126
0001b0 62 2c f6 3d 53 2b 7c 3e b0 cc cf bd 52 88 4d be
       0.12020184 0.24625902 -0.10146463 -0.20071533
0001c0 de 7b f6 3b da f3 58 be 6f 09 93 bd 99 56 05 3e
       0.0075220903 -0.21186772 -0.07179534 0.13021316
0001d0 c1 8c 83 3e a4 be 86 3e 1a 5c a0 3d 8f 37 05 3e
       0.25693324 0.26317322 0.07830067 0.13009475
0001e0 03 6b dc 3d 77 45 d1 3e 2a 35 2e bd e7 58 be bc
       0.10762598 0.4087331 -0.04253117 -0.023235751
0001f0 70 5c bd bc d0 7e f3 3d 98 42 f3 3d 2e f8 8c bb
       -0.023115367 0.11889422 0.11877936 -0.0043020463
000200 b2 2b 46 be 0b 93 0e bd 41 5d 64 bc 08 1d e2 ba
       -0.19352606 -0.0348082 -0.013938249 -0.0017251084
000210 bf a0 48 be b4 8a 7b be 0a f1 a4 bd 7e 6b 9f 3d
       -0.1959257 -0.2456463 -0.08053787 0.077841744
000220 25 4f 81 3d a7 2d 6b 3d d5 d9 03 3d b4 bb e8 bd
       0.06313924 0.057416584 0.032190163 -0.113639265
000230 05 e7 83 be 99 09 4c be f5 bf 26 3d 7a de 3e bd
       -0.2576219 -0.19925536 0.04071041 -0.04659889
000240 53 c9 8b 3d 6c 71 9f 3d a7 0d e8 bd 4f 7d 7e be
       0.06825509 0.077853054 -0.11330729 -0.24852489
000250 10 4b 1d bd ce 4a d7 3d ca 5d 2a be b5 3f a1 bd
       -0.038401663 0.10512315 -0.1663734 -0.07873479
000260 6b 78 0d 3e 0a e7 ff 3c 93 9a 4b 3d f5 82 a1 3e
       0.13815467 0.031238098 0.04970796 0.31545225
000270 50 c9 9f 3d 67 6a 87 bd 92 8e 2f be 20 03 65 be
       0.07802069 -0.066120915 -0.1714423 -0.22364473
000280 b6 23 e5 bd 13 0e 9d bc bd 9a 18 be 4b 40 97 3d
       -0.11188452 -0.01917175 -0.14902778 0.0738531
000290 c4 8b fe 3c 04 7e 07 3e 6c e2 db bd 73 67 4c 3e
       0.031072505 0.13231665 -0.10736546 0.19961338
0002a0 2a f7 92 3e a0 7b ba 3e 24 a0 c6 3d dc 12 9b bb
       0.28704196 0.36422443 0.09698513 -0.004732473
0002b0 08 7d 62 be a4 4f 1a 3e 29 51 53 3e 99 ea d4 3d
       -0.22118008 0.15069443 0.20636429 0.103963085
0002c0 61 17 49 3c 2d d3 98 3c a0 ac 2a be 64 be bb bd
       0.01227364 0.018655384 -0.16667414 -0.091671735
0002d0 89 e7 41 bd 33 26 3d 3c e1 20 f7 3c af d2 51 be
       -0.04733995 0.011544752 0.030167045 -0.20490526
0002e0 79 4d b9 3c 11 1d cc bd 4b 09 b0 3c 92 15 09 bd
       0.02261995 -0.099664815 0.021488806 -0.033467837
0002f0 10 c2 62 be 23 4c 04 be 6a fb 42 3e 75 ad 5f be
       -0.22144341 -0.12919669 0.1904122 -0.21843512
000300 da 77 1a be c6 3b b6 3c 92 8b 03 bd 3a f2 5e 3c
       -0.15084782 0.0222453 -0.032115526 0.013607556
000310 0d a6 71 3e 81 f7 36 be 07 b5 9b be ae d4 2a be
       0.235985 -0.17867853 -0.3041155 -0.16682693
000320 b0 4e 19 3e ce 77 b4 3c 92 1a de 3d 03 a6 fe 3d
       0.14971423 0.022029784 0.10844912 0.12434008
000330 e6 7b 17 bd 95 d3 c3 3d a8 e5 c6 bd bd 7d 2a be
       -0.036983393 0.095618404 -0.09711772 -0.16649528
000340 f7 46 01 be c3 6d ad 3d 79 55 23 bb e6 4e 0e be
       -0.12624727 0.08468201 -0.0024922772 -0.13897285
000350 30 b8 9b 3d 9a 78 4f be 02 6e 53 bd f1 b0 89 3d
       0.0760349 -0.2026085 -0.051618584 0.06723202
000360 ce bc 1d be cb a3 7d 3e 29 86 40 bc 52 7e ae bc
       -0.15404055 0.24769513 -0.011750736 -0.021300469
000370 75 dd 1d 3e 59 ab 9b bc 47 a1 95 bd 0e 83 9a bd
       0.1541651 -0.019002603 -0.07306152 -0.07544528
000380 de 06 ac bd 00 63 0e be ff 8d fc bd 8c 6d c6 3d
       -0.08399747 -0.13904953 -0.12331771 0.09688863
000390 e6 a2 43 3c 85 80 39 3e 78 77 41 3e f2 22 c0 bc
       0.0119406935 0.18115433 0.1889323 -0.023454163
0003a0 37 be cd 3d b0 4f 21 3e ed 1d 4c 3e 14 e9 03 3e
       0.10046046 0.15753055 0.19933291 0.12881881
0003b0 30 1b 23 3d 7f 11 fc bd 14 a8 14 3e 32 52 b1 3a
       0.03982085 -0.123080246 0.14517242 0.0013528524
0003c0 6f 13 99 be 3c c1 68 3c f0 d5 49 3e 35 27 a1 bc
       -0.2989764 0.014206227 0.19710517 -0.019672016
0003d0 a3 4b 8e 3d 0b 4c 50 3e 1a 3a 8a 3c 5f a0 fb bc
       0.0694802 0.20341508 0.016873408 -0.03071612
0003e0 31 9f 36 be 0c f7 cd bd 49 e3 f3 3d f6 d0 cf 3d
       -0.17834164 -0.10056886 0.119085856 0.10147278
0003f0 c2 c6 1e be ec 16 80 bd de 76 de 3b 57 49 87 bd
       -0.15505508 -0.06254372 0.0067890724 -0.06605785

layer_4_fc/MatMul_bias f4 [200]
000000 2e 51 78 bd 41 73 1a bd 83 09 60 bc a3 c4 88 3c
       -0.060624294 -0.03770757 -0.013674143 0.016695326
000010 fd f9 3d 3d 58 bf 32 3c 46 a8 92 bd 57 57 d3 bd
       0.046380986 0.010909878 -0.07161002 -0.10319393
000020 30 63 82 bc bf da 8f bc c8 c6 4d bd 1b c0 c8 3b
       -0.015916437 -0.017560361 -0.0502384 0.0061264164
000030 76 9b b8 3d e9 93 1c 3d 8f 2e 3c 3c 53 81 84 bd
       0.09014027 0.038226996 0.01148571 -0.06469979
000040 f3 e7 32 bd ad d4 a4 3c 03 28 68 3c ce b1 2a 3c
       -0.043678235 0.020120943 0.014169696 0.0104183685
000050 bf cd 18 bd 5b c6 0b bd 06 3c 94 3a 7a ad 8e bc
       -0.03730559 -0.034124713 0.0011309392 -0.017416704
000060 4f cd 52 3d 41 ce 37 bd 7d 0d 36 bd 7e b5 6c bd
       0.05146533 -0.044874433 -0.044446457 -0.057790272
000070 90 6e d3 bc 4b 3c 9e bc d7 31 29 bd dc 5e 4a bd
       -0.025809556 -0.01931586 -0.041307297 -0.04940687
000080 26 2d 5a bd a1 1b 5d bd 99 16 8c 3a cd 59 7c bd
       -0.053265713 -0.053981427 0.0010687887 -0.06160908
000090 b9 e4 57 bc 63 3b 08 3d 55 3e 1f 3d ee 79 ff ba
       -0.01317709 0.03325976 0.038877804 -0.0019491294
0000a0 ab 34 e8 bc 1c ca 58 3d 7d a8 f0 bd cc ed c7 3d
       -0.028345427 0.05292712 -0.117508866 0.09762153
0000b0 f9 24 61 3d 8b 5e aa 3d ad 65 48 bd 06 52 72 3d
       0.0549669 0.08318814 -0.04892509 0.059160255
0000c0 d4 d7 44 bd 5d 24 5c 3d 54 85 4b bd e8 6e 06 bd
       -0.048057392 0.053745616 -0.0496877 -0.032820612
0000d0 e2 93 8a 3c c8 ca 8e 3d d6 13 f1 bc 2d 4e f4 3c
       0.01691622 0.06972271 -0.029428404 0.029822433
0000e0 64 52 36 3c fd 4d af bc 5a 2c b7 3d ea 09 8f 3d
       0.011128042 -0.021399492 0.08944006 0.06984313
0000f0 0a 9c 3d 3d fd d0 bb bc 63 4b ff bc b8 c8 0b bd
       0.04629139 -0.022926802 -0.031163877 -0.034126967
000100 cb 01 c7 3c 1d da fc 3c b5 8e 0f 3a 67 1e a0 3d
       0.024292847 0.030865723 0.0005476282 0.07818299
000110 7f 39 82 3d 06 53 d7 3c 8a eb 68 bc c2 46 3e bd
       0.06358623 0.026284706 -0.014216313 -0.0464542
000120 66 c2 8b bc e7 14 75 3c c3 2e 61 bd 32 9d 45 3c
       -0.01706047 0.014958597 -0.054976236 0.012061404
000130 ea 76 e9 3d 6e 99 6e 3d 16 3f 62 bd 6d aa 94 bb
       0.11399634 0.05825179 -0.055235945 -0.004536918
000140 b3 f9 45 3d 38 1f 57 bd 59 18 42 bd d5 8f 73 3d
       0.048333835 -0.052520007 -0.0473865 0.05946334
000150 cb 60 35 bd e9 86 2e bd ac 9b d1 bc d5 d2 1f 3d
       -0.044281762 -0.04260913 -0.025586925 0.039019424
000160 9f 60 2a bc 4f 2b b8 bb 5b c1 20 bd f6 e8 e5 3c
       -0.010399013 -0.005620397 -0.0392469 0.028065186
000170 6d 3b 90 3d b5 c7 f2 3d 2b 4c 2f 3d f0 00 9b 3b
       0.070425846 0.11854497 0.04279725 0.0047303364
000180 9f 11 60 3d d4 04 f1 3c ed f3 f3 3c 95 18 93 3c
       0.054704305 0.029421248 0.029779399 0.017956058
000190 cf f4 c1 39 fe 73 51 bd c6 f3 bf bc 28 5f 74 3d
       0.00036994225 -0.05113601 -0.02343167 0.05966106
0001a0 a9 51 8a bd c8 59 a0 bc 0c 45 cb 3c e7 57 49 bd
       -0.06753857 -0.019574061 0.024813198 -0.049156096
0001b0 b7 b4 ae bd 93 f3 d6 3b 60 24 6e 3c 47 92 bd 3a
       -0.08530562 0.006559798 0.01453504 0.001446315
0001c0 d8 39 13 bd 2c 6a 83 bd ec 93 ce bb 7f de 33 bd
       -0.035943836 -0.06416735 -0.0063042548 -0.04391336
0001d0 b9 90 3d 3d 37 32 3a 3d 60 1c 99 3c 7a 51 00 bd
       0.046280596 0.045458045 0.018690288 -0.031327702
0001e0 d0 a1 18 37 03 c0 b2 3d 4b ca 9f 3d b3 0d 8c 3d
       9.097581e-06 0.087280296 0.07802256 0.068385504
0001f0 0b 37 da bb f5 4c 25 3d c3 00 6e 3b ad 15 2d bc
       -0.0066593937 0.040356595 0.0036316372 -0.01056425
000200 a5 45 80 bc 9b e8 93 3d d8 3b 06 bd 51 b8 7f bd
       -0.01565821 0.072221 -0.032771915 -0.062431637
000210 1b c0 08 3b cd 32 a5 bd b6 18 f9 bc f5 a6 07 bd
       0.0020866457 -0.0806633 -0.03040729 -0.033118207
000220 cf 16 0d 3d cd 2c 17 bd 12 cb 37 bd 5b 1c 3b 3d
       0.03444558 -0.03690796 -0.044871397 0.04568134
000230 15 53 b0 bd f1 4b 05 3d d6 63 8f 3d c3 3c 37 3c
       -0.08609597 0.032543126 0.07001464 0.01118392
000240 cb 5a 6d bd dd 96 84 bc ad 65 f4 3c 8b ea f8 bc
       -0.057947915 -0.016185218 0.029833639 -0.030385276
000250 21 f6 91 bd 06 29 1d bd ac 85 c4 3c 3b 43 32 bd
       -0.071270235 -0.0383692 0.023989521 -0.043521147
000260 6f a8 36 bd fa 73 7f 3d f6 2a 4b 3c fc 1d 5b 3c
       -0.044594225 0.062366463 0.012400379 0.013373848
000270 f1 fd 19 3c ee bb bd 3a a9 a2 b1 bc 1a d3 2a bd
       0.009398923 0.0014475563 -0.021684008 -0.04170523
000280 fc e7 12 bd 1f a0 86 3b f4 bc 87 3d ef 4e 92 3d
       -0.03586577 0.0041084434 0.06627837 0.07143962
000290 66 8d cf 3b 1c f9 de bc 48 46 bb ba 84 2f a5 3c
       0.0063339947 -0.027218394 -0.0014287913 0.020164259
0002a0 5f 1b c6 bc 2d 9c 12 bd 40 9b 5b bc f6 47 c4 3b
       -0.024182973 -0.035793472 -0.013403714 0.0059900237
0002b0 01 6f df bc 48 d6 de bd 01 c3 4d bd 9d 83 d1 bc
       -0.02727461 -0.10880715 -0.0502348 -0.025575453
0002c0 6d bd a9 3d f2 19 30 bd 3c 10 2e 3b 65 16 64 bc
       0.08288083 -0.042993493 0.002655997 -0.013921355
0002d0 49 aa c7 bd 06 42 5b bc f4 ad 62 bc 80 48 d7 bc
       -0.09749276 -0.01338244 -0.013835419 -0.026279688
0002e0 f8 b0 2f bd 76 fb 1e 3d 4b ee d6 3c 01 5a 40 bd
       -0.04289338 0.03881403 0.026236674 -0.046960834
0002f0 a6 7e 9d 3c a2 d7 5e bc ba b9 09 bd 79 3d f2 3b
       0.01922543 -0.013601216 -0.03362439 0.007392582
000300 c0 8e 34 3d 65 3d b8 bc 80 eb a7 3c a4 f8 ef bc
       0.04408145 -0.022490213 0.020498037 -0.029293366
000310 39 8d d7 bb fa de 32 bc 63 2b d6 bb f0 4a ae bd
       -0.0065781143 -0.01091742 -0.006535934 -0.08510387

layer_4_fc/weight/transpose f4 [200, 1176]
000000 bc ef 76 ba 76 d8 22 bb de 14 85 3c 81 14 36 bb
       -0.00094198785 -0.002484826 0.016245302 -0.0027783217
000010 67 e3 43 39 9a 2a 24 bc d0 10 2c ba 8d 75 c7 38
       0.00018681363 -0.010019923 -0.00065637846 9.510955e-05
000020 5d a8 1e 3a b1 19 99 3c 73 37 c2 3a b7 2d 3f bb
       0.000605231 0.018689008 0.001481755 -0.0029171535
000030 ca 79 c3 ba 5a 6c ef ba 11 17 4b 38 a9 6d 78 3a
       -0.0014913615 -0.0018266544 4.8420454e-05 0.000947679
000040 df bc 95 bb 6f 8e 32 bb e5 34 cc ba 0a 00 7c bb
       -0.0045696343 -0.0027245542 -0.0015579729 -0.0038452172
000050 00 dd a3 b9 86 4d fe b8 f3 2b 5e 3c 4d f8 61 bb
       -0.0003125444 -0.00012126104 0.013560283 -0.0034480274
000060 d3 45 b8 bc e2 01 f0 ba 36 dd 3b 3c 49 66 c0 3c
       -0.022494232 -0.0018311108 0.011466315 0.023486273
000070 0e 4c 81 3b 47 3f f5 3c 2a a6 4b bb 5a ba 95 bc
       0.003945834 0.0299374 -0.0031074383 -0.018277336
000080 ff 20 04 3c 33 c2 b3 3b e6 de 1f 3d 38 07 ed 3b
       0.0080645075 0.005485797 0.039030932 0.0072335266
000090 b2 be b2 3b ee 52 ac 38 8a 68 41 3a 0f 74 bf 3c
       0.0054548616 8.217046e-05 0.0007377943 0.02337077
0000a0 c5 14 0f bd 0d 81 0e bc d1 e1 28 bb f7 72 f4 3c
       -0.034931917 -0.00869776 -0.0025769363 0.029839976
0000b0 2e b3 2b 3c cb 6c 49 3d e1 30 98 3c b6 c0 e9 3b
       0.0104797315 0.04917602 0.018577995 0.0071335686
0000c0 02 53 52 3b 7c 52 34 bb f3 4f 74 bc 95 83 01 bc
       0.0032092934 -0.0027514985 -0.0149116395 -0.007904907
0000d0 27 11 c0 3b 75 fc e3 bc a7 75 04 bc 2d 80 21 bd
       0.0058614197 -0.027830342 -0.008084691 -0.03942888
0000e0 11 75 8b 3c 77 3d b4 3c 2f 01 c8 3c 5c 1b 17 3d
       0.017023595 0.022001965 0.024414627 0.036891326
0000f0 cb 2e 55 3c 0f c0 ef 3b 24 6a e9 bb 3e ed ba 3c
       0.013011645 0.0073165963 -0.0071232487 0.022818204
000100 bf 17 a7 bc 78 c5 40 bd 11 c5 13 bb b9 68 b2 3c
       -0.020397065 -0.04706332 -0.002254788 0.021778451
000110 53 13 59 3d 16 ae 02 bc da 5c 59 bc 94 6a 83 bd
       0.052996945 -0.007976076 -0.013266766 -0.064168125
000120 96 35 0f bc 4b a4 12 bb 64 0b 1a bc fb 33 2d 3d
       -0.008740803 -0.0022375758 -0.00940213 0.0422859
000130 bb 54 b7 3b a8 77 8a bc 3c 6f 17 bb 19 ed 7c bd
       0.0055948175 -0.01690276 -0.0023107072 -0.06174955
000140 23 63 d7 bb 82 9b 1d 3e b2 05 2a bb 0a 42 bf 3b
       -0.0065730973 0.15391353 -0.0025943336 0.00583673
000150 f8 e6 d6 3b 94 49 b0 bd 21 28 12 3d 42 01 a1 3c
       0.0065582953 -0.08607784 0.0356828 0.01965392
000160 59 7d 79 3a 86 96 f1 3b 35 09 47 3d c2 3f 81 3c
       0.00095172744 0.00737268 0.048592765 0.015777472
000170 93 af ea ba 87 19 6c bd 89 cf 8e bc b3 2f 87 3c
       -0.0017905108 -0.057641532 -0.017432945 0.016502237
000180 4e d6 b9 ba cd 27 93 bc 9d 8a c8 bb df 48 cc 3d
       -0.0014178248 -0.017963314 -0.0061200396 0.099748366
000190 97 52 02 bd b1 26 a7 bc c1 fc 52 bb 7d 89 c8 3c
       -0.031817045 -0.020404192 -0.003219411 0.024479622
0001a0 e1 ec 88 bc c8 09 df 3d bf 02 d6 bc 16 a6 85 3b
       -0.016714515 0.108905375 -0.026124356 0.004078637
0001b0 14 cb b9 ba df ac 4f 3c a8 1a 0f bd ed 1b eb 3b
       -0.0014174902 0.012675493 -0.03493753 0.00717496
0001c0 7f da 76 b9 40 5c 17 bc 5f 51 3a 3d a7 04 c8 3a
       -0.00023541784 -0.009238303 0.045487758 0.0015260176
0001d0 b6 51 9c bd 38 33 58 bd cf 20 a9 ba 32 2f ad 3c
       -0.076327726 -0.05278322 -0.0012903454 0.021140669
0001e0 fe 28 81 bb c4 67 ed 39 16 b1 83 ba b5 fb 83 3d
       -0.003941654 0.00045281474 -0.0010047283 0.06444494
0001f0 0f fb 83 3b f9 97 8e ba f9 fe c3 b9 d3 5c a2 bb
       0.0040277313 -0.0010879032 -0.00037383268 -0.004954913
000200 c7 b2 e7 bb 9d fe 70 bb 0b d7 27 bb fb 1c 99 3b
       -0.0070708725 -0.0036772855 -0.0025610353 0.004672644
000210 c3 32 c1 39 12 b1 a9 3a 0c aa e5 3b 02 ad 18 bc
       0.0003684965 0.0012946448 0.0070087966 -0.009318592
000220 a0 ac c5 bb ab 3a ce 3a 91 2b 85 3c 78 31 c4 3c
       -0.0060325414 0.0015734037 0.016256126 0.02394937
000230 96 20 14 bc d0 2c 23 bd 6a c1 07 bb 23 6c cb bb
       -0.009040972 -0.03983766 -0.002071465 -0.0062079593
000240 85 2a e0 b9 bf 58 a8 3a c5 f4 50 3a 74 32 4c 3c
       -0.0004275629 0.0012843831 0.0007971044 0.012463201
000250 94 b1 1c b9 ac df 3a 3a d5 6d 07 bb 64 5f b9 ba
       -0.00014943472 0.00071286666 -0.002066483 -0.0014142809
000260 07 28 f8 ba fd b8 8f 3b 77 5d 89 39 69 8c 8e b8
       -0.0018932828 0.004386066 0.00026200313 -6.797241e-05
000270 4b 0f 26 3b 9b e2 a8 3b 26 1c a3 ba 73 f7 7f ba
       0.0025338705 0.0051539666 -0.0012444302 -0.0009764351
000280 f2 ec 96 ba a3 c3 03 bb f9 b5 31 3a 8d aa b9 b9
       -0.0011514707 -0.0020105622 0.000677913 -0.0003541302
000290 6e d4 e0 3a 62 16 57 bb e1 65 db ba 0f a9 ac 3a
       0.0017153153 -0.0032819738 -0.0016738736 0.0013172942
0002a0 75 33 75 ba 3a 81 6a 3c b7 d5 19 ba f7 c0 45 3b
       -0.0009353676 0.014313037 -0.0005868333 0.003017483
0002b0 64 72 f7 3b d0 0c d7 3c d9 ea e1 b9 94 1c d4 bb
       0.007551478 0.026251227 -0.0004309032 -0.0064731333
0002c0 14 d6 14 3b 9b 33 5e bb dd 63 7b 3c a9 d1 ab bc
       0.0022710608 -0.003390527 0.0153436335 -0.020973997
0002d0 c3 c0 22 bd 7e 05 1f 3c 22 7c b2 b6 19 47 8f 3c
       -0.039734613 0.009705899 -5.3192643e-06 0.017489957
0002e0 9d 48 bf bc 9b d1 65 3c 61 38 6e bb ac d2 14 ba
       -0.023350054 0.014027025 -0.0036349522 -0.00056771445
0002f0 ec bc 5a 37 12 65 b4 3c cf b1 01 bb 62 19 61 bb
       1.3037799e-05 0.02202085 -0.001978982 -0.0034347405
000300 34 84 27 bd 21 22 d4 3b 28 44 20 bc d1 8d 55 3d
       -0.040897563 0.006473795 -0.009781875 0.0521372
000310 80 72 a9 bc e8 f3 14 3d 60 0e dd 3b 44 8c 33 3d
       -0.02068448 0.03636542 0.0067460984 0.04383494
000320 49 59 05 3d 7a fe da 3b 23 a7 ca bb 2f d3 01 bb
       0.032555852 0.006683168 -0.006184475 -0.0019809713
000330 a9 28 90 3d 0c db 8a bd f5 a9 b2 bb 80 29 ba 3b
       0.07039005 -0.06780061 -0.0054523894 0.0056812167
000340 56 0d b2 bc 67 c6 e4 3c ea 9c 10 3c 40 07 9b bb
       -0.021734875 0.027926637 0.008826474 -0.004731089
000350 3b af 7e bc 9d 38 e5 ba a7 61 ee bc a4 f7 3c 3c
       -0.015544708 -0.0017488186 -0.029099299 0.0115336515
000360 a2 a3 55 bc 7c bf 03 bd b7 24 9d bd a1 ff b5 3c
       -0.013039501 -0.032165036 -0.076730184 0.02221662
000370 1d 18 08 bd 88 1d 03 3d ac 42 9d bc 44 69 21 3d
       -0.03322612 0.032010585 -0.01919683 0.03940703
000380 63 a7 e1 3c 53 7b 32 3d 84 70 18 bd 8e f1 10 3b
       0.027545637 0.043574642 -0.03721668 0.0022116634
000390 f2 9f b7 3c 50 df e9 3c 9a b9 11 bd db c7 53 3d
       0.022415135 0.028548867 -0.035577394 0.05170427
0003a0 8e 2e 9d 3c 85 82 61 3d e9 f8 ba bc c6 fd 3e bd
       0.019187238 0.055056114 -0.022823768 -0.046628736
0003b0 43 f6 3b bd 96 1a fa bc 06 f0 d0 39 24 a6 ca ba
       -0.04588915 -0.030530255 0.00039851683 -0.0015460891
0003c0 d3 4e 48 bb 35 80 44 bd 61 c7 b2 bd e0 16 d2 3d
       -0.003056456 -0.04797383 -0.08729435 0.10258269
0003d0 ee 8b b5 bd 39 be 91 3c 58 29 1f bd 31 80 f7 3b
       -0.0886458 0.0177909 -0.038857788 0.0075531234
0003e0 04 24 06 3c 04 ca a2 bd 7b 9f 6a bd 5a 60 69 bd
       0.008187298 -0.07948688 -0.057281 -0.056976654
0003f0 a2 5f 86 bc f2 1b 33 bd 10 56 ea 3c c1 54 02 be
       -0.016403023 -0.043727823 0.02860549 -0.12727644

layer_5_fc/MatMul_bias f4 [10]
000000 90 d9 51 bd fe 89 b2 bd bc ee 8c 3c c4 3b fd bb
       -0.051232874 -0.08717726 0.017203681 -0.007728072
000010 ee 7f 21 bc dc 79 bb bb 5b 52 9e bc e5 28 0d bd
       -0.009857161 -0.005721314 -0.01932638 -0.03446283
000020 0b dd 22 3e 90 17 93 3a
       0.15904634 0.0011222232

layer_5_fc/weight/transpose f4 [10, 200]
000000 ba 20 85 3d ea cd 48 3e 26 89 2a 3e 66 0c 24 bd
       0.06500383 0.196098 0.1665388 -0.040050887
000010 95 d8 71 3b e1 27 12 3e 3e 69 a8 3d 41 d7 98 bd
       0.0036902775 0.14273025 0.08223198 -0.074629314
000020 9c a3 bb 3c 45 b7 14 3e 6b 09 a3 bd e6 90 2e 3e
       0.022905163 0.14523037 -0.07960781 0.17047462
000030 0a 80 fe 3d 71 a0 0d 3e 9a 32 e7 3d 19 24 e5 3d
       0.12426765 0.13830735 0.11288948 0.11188526
000040 ad da 71 a8 36 da 23 3e f4 1a 03 3e c2 60 c5 3d
       -1.3425605e-14 0.1600121 0.1280325 0.09637596
000050 69 78 14 3e 85 52 a3 ba ab a7 01 be 3b 35 8a 8c
       0.14499058 -0.0012460506 -0.12661617 -2.1294304e-31
000060 1a 10 f3 bd d8 54 8d 3b e5 46 24 bd ce bb ba bb
       -0.118683055 0.0043130927 -0.040106673 -0.0056986576
000070 d2 9f 50 bc e1 ab 18 bd aa 08 17 b4 4b cb 61 3e
       -0.012733417 -0.03727329 -1.4066123e-07 0.22050206
000080 02 7b 45 3b 04 f9 88 3d 8f 99 00 3d fd dd f8 bb
       0.0030133133 0.06688121 0.031396445 -0.0075948224
000090 3a 55 f7 bd 3c a7 d3 bd cf 4a 5e bc a7 4e 09 3d
       -0.120768026 -0.10334632 -0.01356764 0.033522274
0000a0 17 93 3c be 3f c1 9c bd c4 88 26 3d af bc 3e bc
       -0.18415485 -0.07654046 0.040657774 -0.011641665
0000b0 dd 80 55 bc fc 63 0d be ea 5d 07 3e fe 09 71 bc
       -0.013031212 -0.13807672 0.13219419 -0.014711855
0000c0 5c e7 0d 3c 22 2c cc 3d 09 45 15 b6 c6 d5 5e bc
       0.008661117 0.09969355 -2.2242914e-06 -0.013600772
0000d0 0d b3 c9 bc 8d 73 8b 3d 3e 7e df 8c 32 ae 08 3e
       -0.02462151 0.06809149 -3.443457e-31 0.133477
0000e0 ca bd 4f bc b7 72 55 8d ac 45 8e 3d cb 74 71 bd
       -0.012679527 -6.5773775e-31 0.069468826 -0.058949273
0000f0 e1 01 03 3e 30 90 15 3e 04 6b c5 bd f5 15 90 bc
       0.12793685 0.14605784 -0.09639552 -0.017588595
000100 78 b6 7a bd e0 3c 23 bd d0 f6 2f be 25 3a 49 bd
       -0.061209172 -0.039852977 -0.17183995 -0.049127717
000110 e8 a1 22 bd b1 54 57 bc b5 f4 0c 8a 7e ac 52 3d
       -0.039705187 -0.013142751 -6.786779e-33 0.051434033
000120 2f 5b b3 8b 4f 89 4d bd ab 0c a1 b9 27 ff 06 3e
       -6.908549e-32 -0.050179776 -0.0003071775 0.1318327
000130 56 de 0d 3d 29 66 b6 bc 07 0a f2 3d c1 c0 21 be
       0.034635864 -0.02226551 0.11818319 -0.15796186
000140 59 ca d8 bd c4 5c 9e bd 45 aa bd 3b 44 fc 8f bd
       -0.1058547 -0.077325374 0.00578812 -0.07030538
000150 c9 d3 eb 3b ac da 19 bd 2d 3f 25 3d d3 bd 26 be
       0.0071968776 -0.037562057 0.040343452 -0.1628335
000160 16 20 30 bc 21 d8 ab bb 68 e7 08 be d7 8d 82 be
       -0.010749837 -0.0052442704 -0.13369524 -0.2549884
000170 43 6a a7 bc 99 30 ed 3b dc 62 19 3e 03 b9 27 be
       -0.020436412 0.0072384593 0.14979118 -0.1637917
000180 35 08 1b be 64 1a 71 3c d5 d0 e1 3d 7e eb d9 3d
       -0.1513985 0.014715765 0.1102616 0.1064062
000190 ce 43 b8 3d 0a 8e 92 3d 89 e8 68 2d a6 44 64 3c
       0.08997308 0.07155998 1.3239306e-11 0.013932383
0001a0 e3 e2 ea bb a7 71 88 bd 4f 4c 0c 3e 0e 26 96 bc
       -0.0071681603 -0.066623025 0.13700984 -0.018328693
0001b0 6f 00 18 bd 23 35 e3 bc fd e0 26 be 2b 1a 82 bd
       -0.03710979 -0.027735298 -0.16296764 -0.063526474
0001c0 df 9e 26 bd ba 88 28 3e 81 73 ce bd 0a 87 b4 bc
       -0.040678855 0.16458407 -0.10080624 -0.022037048
0001d0 5a 64 2a be 4d 11 35 be 41 eb 2f 3e 29 3f de bd
       -0.16639844 -0.17682381 0.17179586 -0.108518906
0001e0 6f e8 1b 3d 10 12 7b bd 15 f2 01 be e4 5f 02 bb
       0.038063463 -0.061296523 -0.12690003 -0.001989358
0001f0 d6 19 13 3d ea b7 7f bd 00 97 17 3e c6 0e 66 be
       0.03591331 -0.062431253 0.14803696 -0.22466573
000200 f1 e6 4a bb 92 62 10 be ad 38 58 3d 88 11 ed 3a
       -0.0030960406 -0.14100102 0.052788425 0.001808689
000210 1e 53 0f be f8 ca 0c 3e 3b 14 1d 3e 7a c5 46 2f
       -0.1399655 0.13749301 0.15339749 1.8078153e-10
000220 c6 04 62 bd f7 07 6d 3e ea c0 03 bc 92 35 fc bd
       -0.055180334 0.2314757 -0.0080416 -0.12314905
000230 ee 7e c1 3b 8e 9c b9 bd 4b 3d 63 be 75 d4 a6 bd
       0.005905024 -0.090630636 -0.2219135 -0.08145992
000240 c3 02 1c be bd 05 30 37 d2 14 60 3c 3f 16 38 bb
       -0.15235429 1.04917535e-05 0.013676839 -0.0028089432
000250 5c 4e 13 3d 5a 42 10 be cd 7c e4 bd d3 95 1e be
       0.0359634 -0.14087811 -0.11156616 -0.15486841
000260 d5 aa 24 bc 1a bb cf 3d 33 fe 11 be 71 84 a4 3c
       -0.010050495 0.10143109 -0.14257126 0.020082684
000270 0e 8b 9d 3c f2 36 83 be 09 00 ad 3c 4f e4 8e 0a
       0.019231346 -0.25627857 0.02111818 1.3759983e-32
000280 b1 fb 0e bd 0e e1 8b be 5c 01 dd bd 83 31 dd bd
       -0.034908 -0.2732014 -0.10791275 -0.10800459
000290 56 7d de bd 48 52 2c 8c 22 58 28 3e b2 1b 8e bc
       -0.1086375 -1.3275159e-31 0.1643987 -0.01734719
0002a0 a4 91 70 bd ad 2a 93 1f e1 87 b1 3d 6c d5 28 3e
       -0.058732644 6.232752e-20 0.08668495 0.16487664
0002b0 7f b2 d7 3c 83 da a1 3d ae 63 4a bd 2d de e9 bd
       0.02633023 0.07903006 -0.04941147 -0.1141933
0002c0 c5 77 39 be 9c 24 5d 3a 58 3c 2d 3e 5e f5 d5 3d
       -0.18112095 0.0008435936 0.1691755 0.10447191
0002d0 9b 72 36 bc c0 13 99 bd 9e a2 ed bd fc 5a 35 be
       -0.0111357225 -0.0747447 -0.116032824 -0.17710489
0002e0 84 7e 3b 3e 8c 43 5e bb e5 8f a1 bd 53 0b 99 b6
       0.1830998 -0.0033914773 -0.07888774 -4.5610736e-06
0002f0 80 4b a2 bc c3 e0 b3 bd b6 53 7f bd 11 13 f7 bd
       -0.019811392 -0.08783104 -0.062335692 -0.120641835
000300 8a 7e d6 bd 5b 2a 13 3e bb 8e 2a be 60 7d 98 a5
       -0.10473354 0.14371626 -0.1665601 -2.6452754e-16
000310 b5 22 64 bd f2 46 77 bd 83 9f 2a 3c 11 1f 0a ba
       -0.05569716 -0.060370393 0.010414007 -0.00052689115
000320 73 b1 a7 bc b7 d7 91 bd f0 fb 1e be b5 a7 bc bc
       -0.020470357 -0.071212225 -0.15525794 -0.023029188
000330 c3 ce b2 bd 19 8a a0 3d 22 10 2b 3e 56 19 86 3c
       -0.08730843 0.0783884 0.16705373 0.016369503
000340 36 cd 3e 3d 24 fe 7f 3c 75 c0 47 3d c7 52 ff bc
       0.046582423 0.015624557 0.048767526 -0.031167401
000350 4d 23 69 be 2b 8b 72 3a 8f ed b5 bd 0a 38 31 3e
       -0.22767372 0.0009252305 -0.08883201 0.17306533
000360 2c 39 57 30 24 86 11 3d 15 9f 0f be 9d d9 9a bd
       7.829779e-10 0.035528317 -0.14025529 -0.07561038
000370 bb e2 28 bd 63 82 a5 3c 24 89 98 3c 73 8c b6 8c
       -0.041231852 0.020203775 0.018620081 -2.812607e-31
000380 cf 3e b2 3d ea 05 44 bc 26 11 da bd 9b 4e 8e bb
       0.08703386 -0.011964301 -0.10647802 -0.0043428666
000390 a9 9c 24 bd 35 47 00 bc 2b 79 13 2a 6f 07 d9 3d
       -0.040188465 -0.007829477 1.3098261e-13 0.10597121
0003a0 75 3e b1 bb 2a aa 0a 3e f0 81 d4 3c bf 7f 39 3e
       -0.005409057 0.13541475 0.025940865 0.18115138
0003b0 61 0b ca bd cc a7 0d be 6d be 80 3d 6f 4e f5 bc
       -0.098654516 -0.1383354 0.06286321 -0.029944627
0003c0 40 36 2a 3d c0 9b 95 bd 85 f6 9f 3e 9a f5 80 be
       0.041555643 -0.073050976 0.31242767 -0.2518738
0003d0 e8 5c bb bd 5a 3e 3d be 38 46 c0 bc dd c4 36 3d
       -0.0914858 -0.18480816 -0.023470983 0.044621337
0003e0 f9 f4 e5 3d e6 4f 57 be b5 75 94 3a 37 fb 3b 3d
       0.112283655 -0.21026573 0.0011326583 0.045893874
0003f0 3a 7e 99 be c8 45 ee 3d cb d0 a2 8c 07 44 df 3d
       -0.29979116 0.116344035 -2.5085715e-31 0.10901647
